Models/DQN.pth (torch, 106512 bytes, 8 tensors)

weight f4 [64, 6]
0	0x3e9f58f9	0.31122568
1	0xbee718e6	-0.45136184
2	0xbf8112d4	-1.0083871
3	0x3da2070f	0.079115026
4	0xbeaf77ff	-0.34271237
5	0xbe7fe999	-0.24991454
6	0x3c9cf3c4	0.019159205
7	0x3f772959	0.96547467
8	0x3f0d842c	0.55279803
9	0xbe00b4f8	-0.12569034
10	0x3fbf0a27	1.4924973
11	0x3f7583fa	0.95904505
12	0x3d00024c	0.03125219
13	0x3d85b9f2	0.06529607
14	0x40815df1	4.0427175
15	0x3fa07cc3	1.2538074
16	0xc08036c7	-4.0066867
17	0xbff9ed7c	-1.95256
18	0x3c109e5c	0.008826818
19	0x3cd94ccd	0.02652588
20	0x4040a5c5	3.0101178
21	0x3fa671df	1.3003501
22	0xc0817bb4	-4.0463505
23	0xc003a45c	-2.0569067
24	0x3e5da64e	0.21645471
25	0x3d6cc5c1	0.05780578
26	0xbfbb7b3a	-1.4646981
27	0xbe2be049	-0.16784777
28	0xc01a7e91	-2.413975
29	0xbfbb1ad3	-1.4617561
30	0x3f01389f	0.5047702
31	0xbd261e62	-0.04055632
32	0x3de52181	0.11188031
33	0x3f0858c2	0.53260434
34	0x3d39740f	0.045276698
35	0xbf0cecfc	-0.5504911
36	0xbdea6dde	-0.11446737
37	0xbd89d340	-0.06729746
38	0x3debd9ef	0.11516177
39	0x3e573f53	0.2102025
40	0x3eacf0bf	0.33777425
41	0xbe5d53af	-0.21613954
42	0x3dc575af	0.09641587
43	0xbe054147	-0.13013183
44	0x3f9bea99	1.2180969
45	0x3f8a7135	1.0815798
46	0x3fbfacc8	1.4974604
47	0x3eb615ef	0.3556361
48	0x3e910ae5	0.28328624
49	0x3f9be878	1.2180319
50	0x40369142	2.8526158
51	0x3f8ad659	1.0846664
52	0x4049ec05	3.1550305
53	0x3f92e116	1.1474941
54	0x3f0b005b	0.5429742
55	0xbeb559e1	-0.35420135
56	0x3e58f4e5	0.2118717
57	0x3ed046d6	0.40679044
58	0x3f1d4cd4	0.61445355
59	0x3f543b61	0.82903105
60	0xbd948aca	-0.072530344
61	0xbdcddd9c	-0.10052034
62	0x3eea8e41	0.45811656
63	0x3de52341	0.11188365
64	0x3ce69559	0.028147386
65	0xbe381d38	-0.17979896
66	0xbe8a1a40	-0.26973152
67	0xbe0b53f3	-0.13606243
68	0x3e041b63	0.12901072
69	0x3e90cc6c	0.28280962
70	0x3e5a8aad	0.21341963
71	0x3eb67325	0.35634723
72	0x3dfae74f	0.1225115
73	0x3e099e68	0.13439333
74	0x3e6c88a5	0.23099001
75	0x3f054aaf	0.52067083
76	0xbe6fa2b0	-0.23401904
77	0x3e15eaab	0.146403
78	0xbeea3b72	-0.45748478
79	0x3d8a5133	0.06753769
80	0x40098c24	2.1491785
81	0x3d3bb32c	0.04582517
82	0xbe3c9c99	-0.18419112
83	0x3ec7186a	0.38885814
84	0x3e1bd796	0.15218958
85	0x3df077f8	0.11741632
86	0x3ff724bd	1.9308087
87	0x3ecacc46	0.39608973
88	0x401e3a60	2.472313
89	0x3fb6d1dd	1.4282795
90	0x3d28f348	0.041247636
91	0xbe3cd956	-0.18442282
92	0xbe63ed7c	-0.22258562
93	0xbe9de2a7	-0.30836985
94	0xbea5adc2	-0.3235913
95	0x3d6b5d27	0.057461884
96	0x3da9023e	0.08252381
97	0x3e50c423	0.2038732
98	0x3d43569f	0.04769003
99	0xbd0b9a44	-0.034082666
100	0x3f02e122	0.51124775
101	0x3d5a2266	0.05325546
102	0x3e9116cc	0.28337705
103	0x3e823603	0.25431833
104	0x401f8c7d	2.4929497
105	0x3f421c34	0.75824285
106	0x40087b08	2.1325092
107	0x3f587d57	0.84566253
108	0xbec3bb0a	-0.38228637
109	0x3defb811	0.1170503
110	0xbf882f5e	-1.0639455
111	0xbe4ce487	-0.20009051
112	0x3fd91af7	1.6961354
113	0x3f95cfa5	1.1703993
114	0xbc1af2ea	-0.009457329
115	0xbd53dccd	-0.051724244
116	0xc0496db0	-3.1473198
117	0xbf8d7ec4	-1.1054311
118	0x406c60a0	3.6933975
119	0x3ffc5633	1.9713806
120	0x3e5f5915	0.21811326
121	0x3dc5e2c4	0.09662393
122	0x3f5fc517	0.8741011
123	0x3e96eafc	0.29476154
124	0x3f1ced7c	0.6129987
125	0x3dace216	0.0844156
126	0xbca55cd9	-0.020185875
127	0xbd83fb0e	-0.06444369
128	0x40425d37	3.0369394
129	0x3fbb84e9	1.4649936
130	0xc0485216	-3.1300101
131	0xc01c6f8f	-2.444309
132	0xbcb98755	-0.02264754
133	0x3d452a9e	0.048136346
134	0xc09490c6	-4.6426725
135	0xbf8d5661	-1.1041986
136	0x40ad639d	5.41841
137	0x40083efe	2.1288447
138	0xbd130890	-0.035896838
139	0x3ece3160	0.40272045
140	0xbe800695	-0.25005022
141	0xbe9ae375	-0.3025166
142	0xc02249b1	-2.5357478
143	0xc01a5de5	-2.4119809
144	0xbd1a9598	-0.03774032
145	0x3e32fd4c	0.17479438
146	0xbe6bf735	-0.23043521
147	0xbede41e2	-0.4340964
148	0x3e1c1e2d	0.15245886
149	0x3ec19cb6	0.37814873
150	0xbe28f2b5	-0.16498835
151	0x3dd39b7f	0.10332393
152	0x3e8e376d	0.27776662
153	0x3d0e1403	0.034687053
154	0x3f334c56	0.70038354
155	0xbdddb6cd	-0.10825882
156	0x3b895bbb	0.0041918433
157	0xbe4fd0e7	-0.20294534
158	0xbea6fd69	-0.32615212
159	0xbfa3c5a8	-1.2794695
160	0x4090e785	4.5282617
161	0x4031e62e	2.779674
162	0x3dba50c1	0.09097434
163	0xbcec13d1	-0.028818043
164	0x3e51d2a4	0.2049051
165	0x3deb9230	0.115024924
166	0xbdddd17f	-0.10830974
167	0xbe613176	-0.21991524
168	0x3ea4d68b	0.32194933
169	0x3d04f43b	0.03245948
170	0x3fb471ad	1.4097191
171	0xbedbb137	-0.42908642
172	0x3f35afc6	0.70971334
173	0x3d9fb546	0.07798247
174	0x3e79fac2	0.24412063
175	0xbdcdd6e1	-0.100507505
176	0x3ef547ef	0.47906443
177	0xbe2d5622	-0.16927388
178	0x3e3164a2	0.17323545
179	0x3eadf6d6	0.33977383
180	0xbd903883	-0.07042029
181	0x3e583e69	0.21117558
182	0x3f81b4bd	1.0133282
183	0x3ef17696	0.47160786
184	0xbe2cc1f1	-0.16870858
185	0xbdb06d2e	-0.086145744
186	0x3dbf1319	0.093298145
187	0xbda5a101	-0.0808735
188	0xc01a1d3c	-2.4080343
189	0x3e2f36d5	0.1711076
190	0xc0852c3e	-4.1616507
191	0xc025431c	-2.582221
192	0xbcb45807	-0.022014631
193	0x3d636cc0	0.055523634
194	0xc025be45	-2.5897381
195	0xbf999fa0	-1.2001839
196	0x405693b8	3.352766
197	0x400f9cd8	2.243948
198	0x3e87e832	0.26544338
199	0x3e74452f	0.23854516
200	0x3daad92f	0.08342206
201	0x3f22b4bc	0.6355703
202	0x3f42ed76	0.76143587
203	0x3ee832d9	0.45351294
204	0xbbd67c98	-0.0065456145
205	0x3e34899a	0.17630616
206	0xc056c1df	-3.355583
207	0xbf890a7b	-1.0706323
208	0x4085a9d8	4.176983
209	0x3fe662bb	1.799888
210	0xbe824b28	-0.25447965
211	0xbdade9f7	-0.08491891
212	0x3fd4a232	1.6611998
213	0x3ef98a62	0.4873839
214	0xbfd1fd9a	-1.6405518
215	0xbfdedfbe	-1.7412031
216	0xbd65d6ec	-0.05611317
217	0xbd03eae7	-0.032206442
218	0x3d99b81a	0.07505818
219	0xbca5bc3c	-0.020231359
220	0xbee3b1a6	-0.44471473
221	0xbca1c5d9	-0.019747661
222	0xbe1f7a1b	-0.15573923
223	0xbf7001b0	-0.93752575
224	0xc030c5ac	-2.762065
225	0xbec7f715	-0.39055696
226	0xc010827b	-2.257964
227	0xbf34bc45	-0.70599777
228	0xbe8162a4	-0.2527057
229	0x3daf6ee6	0.08566074
230	0xbf922438	-1.1417303
231	0xbee71865	-0.451358
232	0x3ff5807b	1.9179834
233	0x3f99b661	1.2008783
234	0x3d3adcbb	0.04562066
235	0x3e1acd31	0.15117337
236	0xbff83750	-1.939188
237	0xbec13a17	-0.37739632
238	0xc017394c	-2.3628721
239	0xbf9c4532	-1.2208617
240	0xbbfbe911	-0.007687696
241	0x3b4b0d5c	0.0030983305
242	0x3f225995	0.6341794
243	0x3f13ebc6	0.57781637
244	0x3ba0b837	0.0049047726
245	0x3d3af780	0.04564619
246	0xbe0a61f4	-0.13513929
247	0x3e132b47	0.14371978
248	0xbde3271b	-0.11091443
249	0xbe273194	-0.16327506
250	0xbe64fc93	-0.22361974
251	0x3e567aba	0.20945254
252	0x3e67cc5e	0.22636554
253	0xbec7e6fc	-0.39043415
254	0x3eb855a6	0.36002845
255	0xbe5a13be	-0.21296594

bias f4 [64]
0	0xbe22afa3	-0.15887313
1	0xbe7bb6ba	-0.24581423
2	0x3ca8bc4f	0.020597605
3	0xbd8e106d	-0.06936727
4	0xbad3940f	-0.0016142147
5	0x3d800eb0	0.062528014
6	0x3f459eb1	0.7719527
7	0x3e5e88c7	0.21731864
8	0xbe91b2f6	-0.2845685
9	0xbe16a4ef	-0.14711355
10	0x3efd6972	0.4949451
11	0xbd4e24fd	-0.050328244
12	0xbd7302a8	-0.059328705
13	0xbf085545	-0.5325511
14	0x3d1ae2f6	0.037814103
15	0x3f72e375	0.9487832
16	0x3f4106d2	0.7540103
17	0xbea97f17	-0.33104774
18	0xbf01bcaf	-0.50678533
19	0x3d069012	0.03285224
20	0x3c2a53f9	0.010395997
21	0x3d8f35ff	0.06992721
22	0x3d8253d5	0.06363646
23	0x3d47c948	0.04877594
24	0x3f67304d	0.90308076
25	0xbe284d5b	-0.16435759
26	0x3cd71b4a	0.02625813
27	0xbd006534	-0.031346515
28	0x3db50624	0.08839062
29	0xbeb00307	-0.3437731
30	0x3f6f916d	0.9358128
31	0xbe99cdda	-0.30039865
32	0x3d55d3e0	0.052204013
33	0xbe8433e3	-0.25820836
34	0x3c49b74f	0.012311771
35	0xbd6eeacc	-0.05832939
36	0x3f83db85	1.0301367
37	0xbe8cfb73	-0.2753559
38	0xbeb955d3	-0.3619829
39	0xbdac28fe	-0.08406256
40	0x3f246e31	0.6423064
41	0x3f6df065	0.9294494
42	0xbd88032c	-0.0664123
43	0xbca5164a	-0.02015223
44	0xbe17662f	-0.14785074
45	0xbe1e0963	-0.15433268
46	0x3f6e5543	0.9309885
47	0xbdaad0a6	-0.08340578
48	0x3d36e963	0.04465617
49	0x3ea4a8c4	0.32160008
50	0x3d421248	0.047380716
51	0xbdea95ae	-0.114543304
52	0x3f27c257	0.65530914
53	0xbef83b77	-0.48482868
54	0x3f815162	1.0102961
55	0xbe63c543	-0.22243218
56	0xbe5e0187	-0.2168027
57	0x3d0678fd	0.032830227
58	0xbeb7dd7f	-0.35911176
59	0xbd355daf	-0.044278797
60	0xbe67ae54	-0.22625095
61	0xbddeaf45	-0.10873274
62	0x3d684e2f	0.056715187
63	0xbebef28e	-0.3729443

weight f4 [128, 64]
0	0x3eb1be7c	0.3471564
1	0xbf7d3742	-0.9891244
2	0xbf9903d5	-1.1954294
3	0xbf8c6db0	-1.0970974
4	0xbfb2544e	-1.3931978
5	0x3e9a7a39	0.30171373
6	0x3e954295	0.2915236
7	0x3ead633e	0.33864778
8	0xbf108e6e	-0.5646733
9	0x3ec59e4c	0.38597333
10	0x3e3d4652	0.18483856
11	0x3dbd2b38	0.09236759
12	0x3ce98216	0.028504413
13	0xbee0ad37	-0.43882152
14	0x3eff8f26	0.499139
15	0x3eb57620	0.35441685
16	0x3ea6b43e	0.3255939
17	0xbf242d16	-0.64131296
18	0xbf54b154	-0.8308308
19	0xc0cd8de7	-6.423572
20	0x3e3729c6	0.17887029
21	0xbf3f7e49	-0.7480207
22	0xc1180d33	-9.503222
23	0x3f012860	0.5045223
24	0x3f0c2d37	0.5475649
25	0x3eaea9ae	0.3411383
26	0xbfb690db	-1.4262956
27	0x3e4348a0	0.19070673
28	0x3f249d55	0.6430257
29	0xbd274e5d	-0.040846217
30	0x3f48f883	0.785042
31	0xbf4e6065	-0.80615836
32	0xc08f8cb2	-4.4859247
33	0x3ef91705	0.48650375
34	0xc0efe1d2	-7.496316
35	0x3ee82651	0.45341733
36	0x3f06f542	0.52717984
37	0xbf433318	-0.7624984
38	0xbf8aa003	-1.0830082
39	0xbf57e84f	-0.8433885
40	0x3f128408	0.57232714
41	0x3ed7e6a2	0.42168146
42	0x3e854f07	0.26036856
43	0xc004158a	-2.0638146
44	0xbe0dd2a3	-0.13849883
45	0xbfcb6b39	-1.5892097
46	0xbcd793f3	-0.026315665
47	0x3d554879	0.05207107
48	0xc06b1711	-3.6732829
49	0x3f429119	0.7600265
50	0xc109be3d	-8.608945
51	0xbe11ed69	-0.14250721
52	0x3ef8bfed	0.48583928
53	0xbecc229b	-0.39870152
54	0x3f28bd6a	0.6591402
55	0xbf20249c	-0.6255586
56	0xbedd1feb	-0.43188414
57	0xbf06ada9	-0.52608734
58	0xbeeb24a4	-0.45926392
59	0xbcd11ce9	-0.02552648
60	0xbf188600	-0.5957947
61	0x3e150286	0.14551744
62	0xbfe8cd08	-1.818757
63	0xbe85b9c5	-0.26118293
64	0x3cdb94e7	0.0268044
65	0xbf00d9dd	-0.50332433
66	0xc0e647e9	-7.196278
67	0xc0286fe4	-2.6318293
68	0xbf24464c	-0.64169765
69	0x3ddf333a	0.108984426
70	0x3ef3892f	0.475656
71	0xbdcc4996	-0.09974973
72	0xbf88ed7e	-1.0697477
73	0x3e5c3304	0.21503836
74	0x3eadef25	0.33971515
75	0x3e35d53c	0.17757124
76	0xbcfdc2aa	-0.030976612
77	0xbedf068f	-0.4355969
78	0xbe8eef4b	-0.2791694
79	0x3f11ff81	0.57030493
80	0x3ecbc9d8	0.39802432
81	0xbfd79d2e	-1.6844842
82	0xbf330919	-0.69935757
83	0xc0aad8cd	-5.338965
84	0x3dcfa8c1	0.10139609
85	0xc095ea3c	-4.684843
86	0xc128992a	-10.537394
87	0xbe2e24cd	-0.17006226
88	0x3f072c97	0.52802414
89	0xbe12363d	-0.14278503
90	0xbfe20041	-1.7656327
91	0x3ea925eb	0.33036742
92	0x3e0f37ad	0.13986082
93	0xbdbf2718	-0.093336284
94	0x3f24087f	0.64075464
95	0xc00183e5	-2.0236752
96	0xc083f7d8	-4.1240044
97	0xbe8fe892	-0.28107125
98	0xc0d719da	-6.7219057
99	0x3cba9acc	0.022778891
100	0x3f2abb77	0.666923
101	0xbf67f858	-0.9061332
102	0xbf1f09bb	-0.6212422
103	0xbeb66487	-0.3562357
104	0x3efbb5de	0.4916219
105	0x3f14d2ce	0.5813416
106	0x3ed32419	0.41238478
107	0xc10fe412	-8.993181
108	0x3d2ee413	0.042697977
109	0xbfb00efe	-1.3754575
110	0x3ee486d4	0.44634116
111	0xbbfc5d0a	-0.007701521
112	0xc04560d2	-3.0840344
113	0xbd1472f5	-0.036242444
114	0xc105312e	-8.324507
115	0xbefbc214	-0.49171507
116	0x3ed88fee	0.4229731
117	0xbf76c6f7	-0.96397346
118	0x3f525d94	0.8217404
119	0xbf66ef53	-0.9020893
120	0x3ceba764	0.028766342
121	0xbf3fe571	-0.74959475
122	0xbea1d830	-0.3161025
123	0x3e153457	0.14570747
124	0x3d9c7e1c	0.07641241
125	0x3d9208c5	0.07130579
126	0xc121516b	-10.082377
127	0xbf2c15f3	-0.6722099
128	0xbe4a6921	-0.19766666
129	0xbc141ae6	-0.009039616
130	0x3def991d	0.11699126
131	0x3de6960c	0.11259088
132	0xbda29379	-0.079382844
133	0xbe40c6bd	-0.18825813
134	0xbd72fb44	-0.059321657
135	0x3c98a023	0.018631047
136	0x3d6b2fe6	0.057418726
137	0xbd4997b1	-0.04921693
138	0xbe7590e2	-0.2398105
139	0xbe26213a	-0.16223612
140	0xbe40aad6	-0.18815169
141	0xbd8253ac	-0.063636154
142	0xbd123872	-0.03569836
143	0xbe2febbe	-0.17179772
144	0xbd3a6ae9	-0.045512114
145	0x3d2b3bed	0.041805197
146	0x3cb4aae5	0.022054145
147	0xbe22291d	-0.15835996
148	0xbe0c09b1	-0.13675572
149	0xbd249f47	-0.04019096
150	0x3d6f6094	0.058441713
151	0xbcc24e22	-0.023718897
152	0xbdb7af98	-0.08969039
153	0xbc856f7a	-0.016288508
154	0x3d8143f7	0.063117914
155	0xbe5f9e84	-0.21837813
156	0xbc3ca744	-0.011514489
157	0x3d356d93	0.04429395
158	0x3c143d95	0.009047885
159	0x3ca9acf8	0.02071236
160	0xbd23d687	-0.03999951
161	0xbdb03ec6	-0.08605723
162	0xbd0e43fc	-0.034732804
163	0xbddcc793	-0.10780253
164	0xbe2a2a9d	-0.16617818
165	0x3cc070cb	0.023491284
166	0x3d953cda	0.07286997
167	0x3c8c0cec	0.017096005
168	0xbdfcfee9	-0.12353308
169	0xbe144968	-0.14481127
170	0xbe43ec7f	-0.19133185
171	0xbdaccbc6	-0.08437304
172	0xbdd26e53	-0.10274949
173	0xbb7890ef	-0.0037928184
174	0xbdb22537	-0.086985044
175	0x3d62b079	0.05534408
176	0xbe33d567	-0.17561875
177	0x3d3f18a0	0.046654344
178	0xbe5a9c04	-0.21348578
179	0xbd6921ae	-0.056916885
180	0x3bc01506	0.005861881
181	0xbb3b78e3	-0.002860599
182	0xbc364ca7	-0.011126674
183	0xbdc0fc13	-0.09423079
184	0xbdfcf68e	-0.12351714
185	0xbd853111	-0.06503499
186	0xbdc4ef8f	-0.09616005
187	0xbe2eb756	-0.17062125
188	0xbe15cf71	-0.14629914
189	0xbcc9496f	-0.024571149
190	0xbe30c02c	-0.17260808
191	0x3d42c8b6	0.047554694
192	0xbe1285e5	-0.14308889
193	0x3dd28317	0.1027891
194	0xbdb0eae4	-0.08638552
195	0x3da3f183	0.08005049
196	0xbd35ad66	-0.04435482
197	0xbdf2606a	-0.11834796
198	0xbc2fcfa9	-0.010730662
199	0x3d580d47	0.052747037
200	0xbe07f8d5	-0.13278516
201	0xbd87fab7	-0.06639617
202	0xbd705a04	-0.058679596
203	0x3d8ef310	0.06979954
204	0x3d094f77	0.03352305
205	0xbccd8542	-0.025087956
206	0x3d23d406	0.039997123
207	0xbd9fe572	-0.07807435
208	0xbc99f7cb	-0.018794915
209	0x3df536ec	0.11973366
210	0x3d6ac7ba	0.05731938
211	0xbd26abb9	-0.04069111
212	0x3d55150f	0.052022036
213	0xbd860394	-0.06543651
214	0xbca167b8	-0.019702777
215	0x3b68c18f	0.003551576
216	0xbdb468ed	-0.088090755
217	0xbdc4562d	-0.09586749
218	0xbd9e6452	-0.07733978
219	0xbd0137b1	-0.031547252
220	0xbd8f886e	-0.07008444
221	0xbd82a438	-0.063789785
222	0x3c975487	0.018472923
223	0x3cd964fd	0.026537413
224	0xbdacd3e6	-0.08438854
225	0xbc5266b2	-0.012841867
226	0xbd7ba58c	-0.061437175
227	0x3de345c2	0.110972896
228	0xbe1af89f	-0.15133904
229	0xbdf7b6d7	-0.12095421
230	0x3bf3432c	0.007423779
231	0xbc83ef02	-0.016105179
232	0xbd2ec0b5	-0.04266425
233	0xbd2c8a54	-0.042124107
234	0x3d8c4692	0.06849398
235	0x3d17c8e8	0.037056834
236	0x3cc7d91b	0.024395516
237	0x3d8ad874	0.067795664
238	0x3d545de5	0.051847357
239	0x3dbc7998	0.0920288
240	0x3d13a308	0.03604415
241	0xbdd9fd0b	-0.10643967
242	0xbb130ec0	-0.0022439212
243	0xbbf23520	-0.007391587
244	0xbdc1bf09	-0.09460265
245	0x3c1bffe0	0.009521455
246	0xbd38654f	-0.04501849
247	0x3cd5095f	0.026005445
248	0xbce67c29	-0.028135376
249	0x3df15a92	0.11784853
250	0xbd8f7dc9	-0.070064135
251	0xbdeeeb15	-0.11665932
252	0x3d86791a	0.06566067
253	0x3d894fac	0.06704649
254	0xbd88daf8	-0.0668239
255	0xbd0a3133	-0.033738326

bias f4 [128]
0	0x3f8a83f1	1.0821515
1	0x3f9819b6	1.1882846
2	0xbe6478f0	-0.22311759
3	0xbc4a2ed7	-0.012340269
4	0xbe220601	-0.15822603
5	0xbdb57c01	-0.088615425
6	0xbcf03c52	-0.029325638
7	0x3d602631	0.054723922
8	0xbe66b82c	-0.22531193
9	0x3f546700	0.82969666
10	0x3ffc9bb7	1.973502
11	0x3f0713ab	0.52764386
12	0xbf199997	-0.59999985
13	0x3ec28927	0.37995264
14	0xbd6ef862	-0.058342345
15	0xbeb97688	-0.36223245
16	0xbed09f97	-0.40746757
17	0xbe9b97f8	-0.3038938
18	0xbec5622f	-0.3855147
19	0x3fd86300	1.6905212
20	0xbe3a0515	-0.18166001
21	0x3f8211a7	1.0161637
22	0xbee9f104	-0.45691693
23	0xbe2a7213	-0.16645078
24	0xbf03d9e5	-0.51504356
25	0x3dd336c6	0.103131816
26	0xbf0973e7	-0.5369248
27	0xbe108533	-0.14113311
28	0x3f3b5396	0.73174417
29	0x3f5b4285	0.85648376
30	0x3f6b928a	0.92020476
31	0x3f46fd8a	0.7773062
32	0x3fa5711e	1.2925146
33	0x3f98ee85	1.194779
34	0x3fa4cde2	1.287533
35	0x3f97fd3d	1.1874157
36	0xbebaf6c9	-0.36516407
37	0xbe01e8ee	-0.12686512
38	0xbd23e646	-0.040014528
39	0xbd22d1e9	-0.039750967
40	0x3f9e20f7	1.235381
41	0xbe9d7851	-0.30755857
42	0x3f8c7105	1.0971991
43	0xbf031141	-0.511982
44	0x3f95e0f1	1.1709272
45	0x3f9ca08a	1.2236493
46	0x3f96611c	1.1748385
47	0x3f9eeebe	1.2416608
48	0x3fa88f6f	1.3168772
49	0x3fadd682	1.3581088
50	0xbdc57024	-0.0964053
51	0x3f9bf33e	1.2183607
52	0x3f6341ec	0.88772464
53	0x3f748b27	0.9552483
54	0x3f9b2c7e	1.2122953
55	0x3e304b77	0.17216288
56	0x3f9d5a32	1.229315
57	0x3f8c683a	1.0969307
58	0xbefe2bcd	-0.49642792
59	0x3fb7f600	1.4371948
60	0x3fa8f440	1.3199539
61	0xbebf4e9e	-0.37364668
62	0x3f7af51a	0.98030245
63	0xbe311da2	-0.1729646
64	0xbe0eadea	-0.1393353
65	0xbde1a04f	-0.110169046
66	0x3f8e5900	1.1120911
67	0x3fa53e81	1.29097
68	0x3f97087d	1.1799465
69	0x3f9d520c	1.2290664
70	0x3ca65fd2	0.020309363
71	0xbe121b6d	-0.14268275
72	0xbde186b4	-0.11012021
73	0xbe7e5868	-0.24838412
74	0xbc4be360	-0.012444347
75	0x3d12b216	0.035814367
76	0x3ef1c6a3	0.4722186
77	0xbda37e16	-0.07983033
78	0x3bc87cf1	0.00611841
79	0x3fa5365b	1.2907213
80	0xbe414a77	-0.18876062
81	0x3f63fbdb	0.89056176
82	0xbf031910	-0.5121012
83	0x3f92fe5c	1.1483874
84	0x3f7b7199	0.9822021
85	0x3f9a8b71	1.2073804
86	0x3f9fafc7	1.2475518
87	0x3fa69bc5	1.3016287
88	0xbed3d488	-0.41373086
89	0x3f36e563	0.71443766
90	0xbd913311	-0.07089818
91	0x3f80b094	1.0053887
92	0x3f203dff	0.625946
93	0x3faef7b2	1.3669341
94	0x3f8cdd28	1.1004992
95	0x3d3e4b2e	0.046458416
96	0x3ee4377a	0.44573575
97	0x3f90cb17	1.1311978
98	0x3f8c0829	1.093999
99	0xbe1fc1ff	-0.15601347
100	0xbdb84aa2	-0.0899861
101	0xbe84ecad	-0.2596182
102	0x3fa8f570	1.3199902
103	0x3fe00ae1	1.750332
104	0xbd21954b	-0.039449017
105	0x3f98c26a	1.193433
106	0x3fa2ed42	1.2728655
107	0xbec9a8f2	-0.39386708
108	0x3b39285c	0.0028252816
109	0xbd197ec9	-0.037474427
110	0xbdbc18db	-0.09184428
111	0x3e6daa3b	0.23209469
112	0x3fa55691	1.2917043
113	0x3f8df147	1.1089257
114	0x3f9fa66b	1.2472662
115	0xbef58598	-0.47953486
116	0x3f9283ee	1.1446512
117	0xbe2553a8	-0.16145194
118	0xbef2cf81	-0.47423938
119	0xbe0e9d83	-0.13927273
120	0xbdefe1a0	-0.117129564
121	0x3e59df73	0.21276645
122	0x3f20e394	0.62847257
123	0x3faaa1da	1.3330643
124	0xbe9e1de5	-0.30882183
125	0x3e0aecd5	0.13566907
126	0x3f587957	0.8456015
127	0xbe2933c2	-0.1652365

weight f4 [128, 128]
0	0xbcd5e9a2	-0.026112381
1	0xbdfa318a	-0.1221648
2	0x3c821998	0.015881345
3	0xbc815c76	-0.01579116
4	0x3a80e8ac	0.0009834967
5	0xbdf17949	-0.117907114
6	0xbd710118	-0.058838934
7	0xbdb659d6	-0.089038536
8	0xbd81800c	-0.06323251
9	0xbcca47b2	-0.02469239
10	0xbdf9895d	-0.12184403
11	0xbcf4fb61	-0.029905023
12	0xbde79e01	-0.11309434
13	0xbe54945c	-0.2075972
14	0x3d5a5e26	0.053312443
15	0xbc3f6fb1	-0.011684344
16	0xbdb442fe	-0.0880184
17	0xbd56fb6c	-0.05248587
18	0xbd824fbb	-0.06362864
19	0xbcc8626f	-0.024461
20	0xbcb57615	-0.022151032
21	0x3cf0713b	0.029350867
22	0xbc674bb4	-0.01411717
23	0x3d871cae	0.06597267
24	0x3c7f4c5a	0.0155821685
25	0x3d9ecd6d	0.077540256
26	0x3c9b708e	0.018974569
27	0x3cf4bbf9	0.029874789
28	0xbda5623f	-0.080753796
29	0xbe4b66bb	-0.19863407
30	0xbda88816	-0.08229081
31	0x3d850610	0.06495297
32	0xbb2cb7d5	-0.002635469
33	0xbc0bede3	-0.008540603
34	0xbc912af4	-0.017720677
35	0x3d662776	0.056189977
36	0xbc3be1e2	-0.011467429
37	0xbda16631	-0.078808196
38	0x3d698e66	0.057020567
39	0xbd90842b	-0.07056459
40	0x3ca4ba79	0.020108448
41	0xbe1353bc	-0.14387411
42	0xbcc87743	-0.02447093
43	0xbbd4d063	-0.006494568
44	0x3c50c8f2	0.012743222
45	0xbdb34f20	-0.08755326
46	0xbd642624	-0.055700436
47	0xb9751683	-0.00023373407
48	0xbde4e66b	-0.11176761
49	0x3b06a044	0.0020542303
50	0xbdaa0a8a	-0.083027914
51	0xbdbd4f90	-0.09243691
52	0xbdc33d22	-0.095331445
53	0x3c607e52	0.013701992
54	0xbd87fc61	-0.06639934
55	0x3ce788a0	0.02826339
56	0xbdf54c7e	-0.1197748
57	0xbc658312	-0.0140083
58	0x3c510be6	0.012759184
59	0xbdb860da	-0.09002848
60	0xbdc37f6a	-0.09545787
61	0xbddc0649	-0.10743386
62	0xbd55f826	-0.052238606
63	0xbd96df88	-0.07366854
64	0x3d4bf735	0.049796302
65	0x3d69ef77	0.057113137
66	0x3d7650d5	0.06013568
67	0xbcf0036e	-0.02929851
68	0xbd9e43c9	-0.07727773
69	0xbbe510f5	-0.006990547
70	0xbd8ae7a9	-0.06782467
71	0x3d9c6e37	0.07638209
72	0x3cbd0ce8	0.023077443
73	0x3cd24344	0.02566684
74	0xbd3317b3	-0.043723773
75	0xbd08f7b9	-0.03343937
76	0xbd5f63e4	-0.054538622
77	0xbcae809f	-0.021301566
78	0x3c5ac255	0.013351996
79	0xbc13363b	-0.0089850975
80	0xbc13c0ce	-0.009018136
81	0xbdfb5eb9	-0.12273926
82	0xbdef7c22	-0.11693598
83	0x3d7061e0	0.05868709
84	0xbc3e8a9f	-0.0116297295
85	0xbdfc8454	-0.12329927
86	0x3d250ad8	0.040293545
87	0xbe02b85f	-0.12765644
88	0xbc0fc04b	-0.008773874
89	0xbe131f11	-0.1436732
90	0x3ca69423	0.020334309
91	0xbdf4633f	-0.11932992
92	0x3c988d56	0.018622082
93	0xbc5c102d	-0.013431591
94	0xbe337e6e	-0.17528698
95	0xbde4cc53	-0.11171784
96	0xbe20196c	-0.15634698
97	0xbd72f587	-0.059316184
98	0xbd4bec06	-0.049785636
99	0x3cbc5bff	0.022993086
100	0x3da4cdcd	0.08047066
101	0xbdb372be	-0.0876212
102	0xbde2a915	-0.11067406
103	0x3c389e89	0.0112682665
104	0xbc7b5716	-0.015340587
105	0xbd99e7c4	-0.07514909
106	0xbe055032	-0.13018873
107	0x3d045261	0.032305125
108	0x3c5387d6	0.012910804
109	0x3c4c805f	0.012481778
110	0x3c98cae4	0.018651433
111	0x3c104e9e	0.008807806
112	0xbdaa5a06	-0.08317952
113	0xbd114faf	-0.035476383
114	0x3c2dbe67	0.0106044775
115	0x3c125ef0	0.008933768
116	0x3b93081e	0.0044870516
117	0xbd46642d	-0.04843538
118	0xbcb938d3	-0.022610104
119	0x3d986244	0.07440618
120	0x3cd7ff51	0.026366862
121	0xbd87dc39	-0.06633801
122	0xbcdd8812	-0.027042422
123	0xbdadd21d	-0.084873416
124	0xbdfb184b	-0.12260493
125	0xbd4a68a1	-0.04941619
126	0x3d8eaee6	0.06966953
127	0x3d2c1b83	0.042018425
128	0x3fc70d82	1.5550997
129	0x40904b37	4.5091815
130	0x3da7ab0d	0.08186922
131	0x3d7b8b28	0.061412007
132	0x3dc5f74e	0.0966631
133	0xbd2e6f79	-0.042586777
134	0x3d607e5b	0.054808002
135	0x3d6507f2	0.05591578
136	0xbdb701de	-0.08935903
137	0x3f92b6a4	1.1461987
138	0x3ed693e5	0.4190971
139	0x3fcc58a5	1.5964552
140	0xc0039d69	-2.0564826
141	0x3f5d8de9	0.8654466
142	0x3d3236ba	0.043509223
143	0xc07504ab	-3.82841
144	0xc083afde	-4.115218
145	0xc04cd832	-3.2006955
146	0xc07a6471	-3.9123805
147	0x3f36e095	0.71436435
148	0xbd14c107	-0.036316898
149	0x3f98d648	1.1940393
150	0xc08996c1	-4.2996526
151	0xbce613f5	-0.028085688
152	0xc029e985	-2.654878
153	0xbc151034	-0.009098101
154	0xbf9e92a7	-1.2388505
155	0x3c5e7acf	0.013579085
156	0x400d1ce9	2.2048895
157	0x400323ee	2.049068
158	0x3f8c88bd	1.0979229
159	0x4019064e	2.3910098
160	0x4042fbff	3.0466306
161	0x3f920dae	1.1410425
162	0x4044d14a	3.075274
163	0x408bc394	4.3676243
164	0xc016313f	-2.3467557
165	0xbd045270	-0.03230518
166	0xbd368938	-0.044564456
167	0x3d848282	0.06470205
168	0x4043e5c5	3.060899
169	0xc037bd99	-2.8709471
170	0x4057520c	3.3643827
171	0xc086a131	-4.2071767
172	0x40817cdc	4.0464916
173	0x4084cf37	4.150295
174	0x408560d1	4.1680684
175	0x406d380c	3.7065458
176	0x403f8785	2.9926465
177	0x405294ca	3.2903314
178	0xbe121afc	-0.14268106
179	0x4077f3b8	3.8742504
180	0x404ce71c	3.2016058
181	0x3ee458a2	0.4459887
182	0x4082ac6d	4.083548
183	0x3e980461	0.2969084
184	0x4050de51	3.263569
185	0x4070c0f7	3.7617776
186	0xc06075c9	-3.507189
187	0x3f4c67b2	0.79845726
188	0x4033cd6b	2.8094127
189	0xbfad9a4c	-1.3562713
190	0x408a74d6	4.326762
191	0x3d43d54b	0.047810834
192	0xbd0f2366	-0.034945868
193	0x3d62f6ed	0.055411268
194	0x404aab35	3.1666996
195	0x4058b064	3.385766
196	0x40806c94	4.013254
197	0x406d8b7a	3.711638
198	0x3db39c32	0.08770026
199	0x3ab081e4	0.0013466445
200	0xbd0d5535	-0.034505088
201	0xbf91e3e0	-1.1397667
202	0xbe2297a3	-0.15878157
203	0x3cf8b9e1	0.030362071
204	0x3f356e7f	0.7087173
205	0xbb2d6f3c	-0.0026464006
206	0xbd503a0d	-0.05083661
207	0x3fc62906	1.5481269
208	0x3cc29830	0.02375421
209	0x3fb90658	1.4455061
210	0xc0673bc4	-3.6130228
211	0x407fdb21	3.9977496
212	0x3f990ebf	1.1957625
213	0x4052f39a	3.2961183
214	0x406d90fa	3.7119737
215	0x3ef2d377	0.4742696
216	0xc0718ec4	-3.7743387
217	0x400ef85f	2.2339094
218	0xbd9d9264	-0.076939374
219	0x408b03ca	4.3442125
220	0x3fd821d1	1.688532
221	0x4011d2ed	2.278499
222	0x4098599b	4.760938
223	0x3f5b938a	0.85772
224	0x3f9a23e4	1.2042203
225	0x406f2059	3.7363493
226	0x4025b78a	2.5893273
227	0x3d1f56ec	0.038901255
228	0xbcaa36ba	-0.020778049
229	0xbf2a9cb2	-0.6664535
230	0x402a6302	2.662293
231	0x3e6fad10	0.23405862
232	0xbd765177	-0.060136285
233	0x4088c6f2	4.2742853
234	0x40431ddb	3.0486972
235	0xc08c71a0	-4.3888702
236	0xbd3156e9	-0.043295775
237	0x3e721c30	0.23643565
238	0xbd994fbb	-0.074859105
239	0xc0085cff	-2.130676
240	0x404499c3	3.0718849
241	0x40809601	4.018311
242	0x40497c2f	3.1482046
243	0xc0893470	-4.287651
244	0x3f484baf	0.78240484
245	0x3d28c6f0	0.041205347
246	0xc01942d7	-2.3947046
247	0xbe08d790	-0.1336348
248	0xbdd4026f	-0.10352027
249	0xbd01be07	-0.031675365
250	0x4014d101	2.3252566
251	0x404094b3	3.0090759
252	0xbfbd6fd7	-1.4799756
253	0x3f0d06e1	0.5508862
254	0x3f60acda	0.8776375
255	0xbd87b11d	-0.066255786

bias f4 [128]
0	0xbd1f49eb	-0.038888853
1	0x3fb0873c	1.379127
2	0xbdd067cb	-0.10176047
3	0xbcfbf71a	-0.030757476
4	0xbd9c6329	-0.07636101
5	0x3fa5ea5a	1.2962143
6	0x3fb99c84	1.450089
7	0x405d9e28	3.462778
8	0x3e8c0e24	0.27354538
9	0xbec09063	-0.37610158
10	0xbed060d1	-0.40698865
11	0x3eebad21	0.46030524
12	0x3e519cd0	0.20469975
13	0x3e288a2c	0.16458958
14	0xbe7c7e6d	-0.24657603
15	0x3ec146df	0.37749383
16	0xbd9467a1	-0.07246328
17	0xbee5fc13	-0.4491888
18	0xbe8a99ef	-0.27070567
19	0x3fa0bd42	1.2557757
20	0x3facdb84	1.3504491
21	0xbd63a48b	-0.055576842
22	0xbd8f3594	-0.06992641
23	0xbd77a8ac	-0.060463592
24	0x3ff7be18	1.9354887
25	0xbee0eac5	-0.43929115
26	0x3f977229	1.1831714
27	0xbd06a1bd	-0.03286909
28	0x3fa48eb1	1.2856046
29	0x3bf15b98	0.007365655
30	0x3fcdf40d	1.6090103
31	0x3e47d6e4	0.19515568
32	0x400e2644	2.2210855
33	0x3edd5576	0.43229264
34	0xbdb5db9b	-0.08879777
35	0xbdcb3fb1	-0.099242575
36	0x3e2fa749	0.17153658
37	0x3f1cee2f	0.6130094
38	0x3f04c856	0.5186819
39	0x3f64537a	0.89189875
40	0x3f925a05	1.1433722
41	0xbd39eda1	-0.045392636
42	0x3fa2f40e	1.273073
43	0x3e8df2a5	0.27724186
44	0xbc3db94e	-0.011579825
45	0x3db36fa3	0.087615274
46	0xbde49346	-0.11160903
47	0x4010cd99	2.2625487
48	0xbda39a06	-0.07988362
49	0x3baae2cf	0.005215026
50	0x3f957542	1.1676409
51	0x3db4cca2	0.08828093
52	0xbde41504	-0.11136821
53	0x3d5a8570	0.053349912
54	0x3f8358e8	1.0261507
55	0x3f952484	1.1651769
56	0xbec42a9c	-0.38313758
57	0xbbfe8077	-0.007766779
58	0xbd8cda19	-0.06877536
59	0x3e8e5eb2	0.27806622
60	0xbcecfa4e	-0.028927948
61	0xbe6e869e	-0.2329354
62	0xbd2e8c58	-0.04261431
63	0x4053367d	3.3002007
64	0xbcf41187	-0.029793514
65	0xbd2429d2	-0.040078945
66	0x3f420b4b	0.7579848
67	0xbe67b804	-0.2262879
68	0xbdbc93ef	-0.092079036
69	0xbd2be6f9	-0.04196832
70	0x3e1255af	0.14290498
71	0x3d0a6dbb	0.033796053
72	0xbd82bd42	-0.06383754
73	0xbd719d53	-0.058987927
74	0xbdcef185	-0.1010466
75	0xbd5a8557	-0.05334982
76	0x3fb0f212	1.3823874
77	0x3fa70e15	1.3051172
78	0x3fa05b70	1.2527905
79	0xbe01a20a	-0.12659469
80	0xbe2cf876	-0.16891655
81	0x400502f0	2.0783043
82	0x4021b052	2.5263867
83	0xbc10d417	-0.008839629
84	0x3faf69d1	1.3704168
85	0x404cd4be	3.2004848
86	0xbde29011	-0.11062635
87	0x400af272	2.1710477
88	0x3f482b18	0.78190756
89	0xbe0c3f84	-0.13696104
90	0xbedcf659	-0.43156698
91	0x3f752b8d	0.9576958
92	0xbdeae83f	-0.11470079
93	0xbd36f862	-0.04467047
94	0xbd45737d	-0.04820584
95	0xbdbaa034	-0.091125876
96	0x3fa74a20	1.3069496
97	0x3e592317	0.21204792
98	0x3f9d155e	1.2272146
99	0x3fb0eaae	1.3821619
100	0xbd97230f	-0.07379734
101	0xbdcc9bee	-0.09990679
102	0xbd524e83	-0.051344406
103	0x3fa076d4	1.2536263
104	0xbcd4506e	-0.025917258
105	0x3e267061	0.16253807
106	0x3e855386	0.26040286
107	0x3ec0cfd6	0.37658566
108	0xbdc37368	-0.09543496
109	0x3fbf5ac1	1.4949571
110	0xbf2be722	-0.67149556
111	0xbd1e88db	-0.038704734
112	0x3f754442	0.9580728
113	0x3fb6282d	1.4231011
114	0x3d8db01a	0.06918354
115	0x3c3d9d7e	0.011573194
116	0xbe112b8a	-0.14176765
117	0x3e019cb2	0.12657431
118	0xbd54fe25	-0.052000184
119	0xbcf9dcbe	-0.030500766
120	0x3b077faf	0.002067547
121	0x404b9ee3	3.1815727
122	0x3f9232da	1.1421769
123	0x3f2990b6	0.66236436
124	0x3ecd4b19	0.40096357
125	0xbdd65405	-0.10465244
126	0xbdc1be4b	-0.09460124
127	0xbe56d4ef	-0.20979665

weight f4 [2, 128]
0	0xbcc76751	-0.024341257
1	0x405c6186	3.4434524
2	0x3d8411e9	0.064487286
3	0x3e261dd1	0.16222312
4	0x3d4880f0	0.04895109
5	0x4072d425	3.7941983
6	0x404d0301	3.2033083
7	0x40125598	2.2864742
8	0x3f61eb52	0.88249695
9	0xc00dd6af	-2.2162282
10	0xbff443b0	-1.9083157
11	0x408885e8	4.266346
12	0xbe831980	-0.25605392
13	0x3fee16a8	1.8600664
14	0xc001a839	-2.0258925
15	0x3dc4d663	0.096112035
16	0x3b00c30f	0.0019647514
17	0xc0259e35	-2.5877812
18	0xc00bb706	-2.1830459
19	0x4028db97	2.6384027
20	0x404e9aaa	3.22819
21	0x3d19acd2	0.03751833
22	0x3ccef507	0.025263323
23	0xbcef2810	-0.029193908
24	0x3ff7ada7	1.934987
25	0xbfcf874e	-1.6213167
26	0x40147451	2.3195994
27	0xbcc983d5	-0.024598995
28	0x4061c3ad	3.527568
29	0xbd9f043c	-0.077644795
30	0x4024b64c	2.5736265
31	0xbd793ab0	-0.060846984
32	0x400fb231	2.245251
33	0x3f0a2ae9	0.53971726
34	0x3d9b14d5	0.07572333
35	0x3c373521	0.0111821005
36	0xc0f71283	-7.7210097
37	0x3e3ec3bb	0.18629353
38	0x408eed5f	4.466476
39	0x40265372	2.598843
40	0x40134b22	2.3014607
41	0xbd34b06b	-0.044113558
42	0x4027488b	2.6138027
43	0x3ca68bd9	0.020330356
44	0xbc423fda	-0.011856044
45	0x3f10cf5e	0.5656642
46	0xbdae9e90	-0.08526337
47	0x4014977f	2.3217466
48	0x3dd4e08e	0.10394393
49	0x3ed56d3a	0.41684896
50	0x40270b69	2.6100714
51	0x3e6dd73b	0.23226635
52	0x3dad6f7d	0.0846853
53	0x3f078aa8	0.5294595
54	0x400b1a8b	2.173495
55	0x404248ff	3.0357053
56	0xc05fde60	-3.4979477
57	0x3c9e4945	0.019322047
58	0x3d227ede	0.03967177
59	0x3e60c883	0.21951489
60	0x3cb25013	0.021766698
61	0xc01f6d81	-2.4910586
62	0xbc051aef	-0.008124097
63	0x40164c28	2.3483982
64	0xbc509a34	-0.012732077
65	0x3d41220b	0.047151607
66	0x406b1017	3.672857
67	0x3ffeb235	1.9898134
68	0xbd0d21cd	-0.034456063
69	0xbcdb8374	-0.02679608
70	0x3e767dce	0.24071428
71	0x3c97674b	0.018481871
72	0xbbfa6aa6	-0.007642108
73	0x3a1d9bbe	0.0006012282
74	0x3d06dc03	0.032924663
75	0x3cbb6378	0.022874579
76	0x407d4828	3.957529
77	0x401cec4f	2.4519231
78	0x403448b2	2.816937
79	0xbd9fe535	-0.0780739
80	0xc0304df5	-2.7547581
81	0x402b6685	2.6781323
82	0x4022f68f	2.5462987
83	0xbd8f0fb8	-0.0698542
84	0x407bd45b	3.9348361
85	0x400271f1	2.0382044
86	0x3cf3962c	0.029734693
87	0x401a3e2e	2.4100451
88	0x408059c5	4.010958
89	0x3b92cae0	0.004479751
90	0xc02e4d0e	-2.723453
91	0x4027a1de	2.6192546
92	0xba9db48d	-0.0012031958
93	0x3d57c876	0.05268141
94	0xbddd5c8d	-0.10808668
95	0x3e39458f	0.18092941
96	0x405b9972	3.4312406
97	0xbe9efe20	-0.31053257
98	0x40426f49	3.0380423
99	0x403c21d0	2.9395638
100	0x3cd374c1	0.025812509
101	0x3d44f41c	0.048084363
102	0xbd98a360	-0.07453036
103	0x401c53a8	2.442606
104	0xbdd59490	-0.10428727
105	0x40663db4	3.597516
106	0xc0822f0c	-4.068243
107	0x4054f3dd	3.3273842
108	0xbdaa640a	-0.08319862
109	0x4085567b	4.1668067
110	0xbfbd573d	-1.4792248
111	0x3b6b5b6d	0.0035912648
112	0x408e97fd	4.4560533
113	0x40529574	3.290372
114	0xc00228f0	-2.0337486
115	0x3db438d0	0.087998986
116	0x3e9dbd3e	0.30808443
117	0xbe76f0ba	-0.24115267
118	0x3cd97df2	0.026549313
119	0x3cd168c6	0.025562655
120	0xbdd6305a	-0.10458441
121	0x4019f8a3	2.4058006
122	0x401c3c8a	2.441195
123	0xbf9c5dea	-1.221616
124	0x3e027d20	0.12743044
125	0x3c904884	0.017612703
126	0xbc0c05af	-0.008546277
127	0x3f3ee809	0.7457281
128	0xbb86b250	-0.004110612
129	0x40304c46	2.7546554
130	0xbd6f5215	-0.05842789
131	0x40176e5d	2.366111
132	0xbd2aa163	-0.041657817
133	0x401886dc	2.3832312
134	0x403b7101	2.9287722
135	0x40251d76	2.5799232
136	0x40587585	3.3821728
137	0xbf380ed4	-0.71897626
138	0xc010514d	-2.2549622
139	0xbf5ad31c	-0.8547838
140	0x3ff4c815	1.912356
141	0xbfbe4eef	-1.4867839
142	0xc013ee2f	-2.3114126
143	0x40159eb7	2.3378122
144	0xbdb31774	-0.08744708
145	0xc0509854	-3.2592974
146	0xbfc636c2	-1.5485461
147	0x4054cd38	3.3250256
148	0x403bd920	2.9351273
149	0xbda867c6	-0.08222918
150	0x3d966fe2	0.07345559
151	0x3c317e8d	0.010833395
152	0x401acbe5	2.4186947
153	0xbffd1bcb	-1.9774107
154	0x407400ec	3.8125563
155	0x3d61272b	0.054968994
156	0x4028d670	2.6380882
157	0xbd0e73d4	-0.03477843
158	0x3fdcfbd4	1.7264352
159	0x4001acef	2.02618
160	0x3fc4359d	1.5328861
161	0x4066ed22	3.6082234
162	0xbb7aa686	-0.0038246228
163	0x3c100432	0.008790063
164	0xc0136a57	-2.3033655
165	0x40674f87	3.614229
166	0xc0308c10	-2.7585487
167	0x3f8375e0	1.0270348
168	0x4074f0ef	3.8272054
169	0xbe1136b4	-0.14181024
170	0x405f1c44	3.4861002
171	0x403785a0	2.8675308
172	0x3cd77b28	0.026303843
173	0x402cb88b	2.6987636
174	0xbdc15cd5	-0.094415344
175	0x3fd1e078	1.6396627
176	0x401aa98e	2.4165988
177	0x4020886a	2.508326
178	0x406b0cf8	3.6726665
179	0x3dd6219a	0.10455628
180	0xbc85bc0e	-0.016325023
181	0x404d39ac	3.206645
182	0x40802431	4.004418
183	0x404a19be	3.1578212
184	0xc03a8d89	-2.9148886
185	0x3c1f265b	0.0097137345
186	0xbd49339f	-0.049121495
187	0x4016f4df	2.3586957
188	0x3e30f368	0.17280352
189	0xbfadaa6c	-1.3567634
190	0x3c379a62	0.011206241
191	0x4027d014	2.622075
192	0x3d7fdc12	0.062465735
193	0xbba0387f	-0.0048895474
194	0x3fd4d9cc	1.6628966
195	0xc02002d1	-2.500172
196	0x3d094d7e	0.033521168
197	0x3c5ba9eb	0.013407211
198	0x40122eb9	2.2841017
199	0x3d073fe6	0.033019923
200	0x3d6b31cc	0.057420537
201	0xbcc64060	-0.024200618
202	0xbcacba1c	-0.021084838
203	0x402d135b	2.7043064
204	0x400ee38e	2.2326388
205	0x40011126	2.0166717
206	0x4051d3fa	3.278563
207	0xbc866be0	-0.01640886
208	0xc0c6eb62	-6.2162333
209	0x401dac5a	2.4636445
210	0x40266c1a	2.600348
211	0xbcf89390	-0.0303438
212	0x400bf6e5	2.1869442
213	0x401f095f	2.484947
214	0x3b2fd3f0	0.0026829205
215	0x4022b43d	2.5422509
216	0x3f086c0b	0.5328986
217	0x3d60b2c0	0.05485797
218	0xc02cdabc	-2.7008505
219	0x4057a3b9	3.3693678
220	0x401760db	2.3652866
221	0x3d576489	0.052586112
222	0xbcd924dd	-0.026506836
223	0x4019f12a	2.4053445
224	0x402e8d46	2.7273726
225	0x3fef0c20	1.8675575
226	0x4043dcc0	3.0603485
227	0x404fc2dd	3.2462685
228	0xbb13e062	-0.0022564163
229	0x3cc5d9ec	0.024151765
230	0xba8cf405	-0.0010753876
231	0x4019002f	2.3906362
232	0xbf011c58	-0.50433874
233	0xbf7af4ac	-0.9802959
234	0xc0eb81fd	-7.3596177
235	0xbf7808b9	-0.9688831
236	0xbdf207ba	-0.1181788
237	0x40071c9a	2.1111207
238	0xbf5376d1	-0.82603174
239	0x3c7a4d58	0.015277229
240	0x3f7cbba7	0.98723835
241	0x403354bd	2.802047
242	0xc0ad4400	-5.414551
243	0xbcdb75fa	-0.026789654
244	0x405e9cd8	3.478323
245	0x3fff8593	1.9962639
246	0xbd75b309	-0.059985194
247	0xbe002100	-0.12512589
248	0xbcc20990	-0.0236862
249	0x4026c41b	2.6057193
250	0x406a5c53	3.661885
251	0x40702ad2	3.7526135
252	0x40155791	2.3334696
253	0x3c8655b9	0.016398298
254	0x3cd60d1d	0.0261293
255	0x4007082f	2.1098745

bias f4 [2]
0	0x3fe4f52c	1.788732
1	0x40241293	2.5636337
